modelos_no_cuantizados/Modelo1.0/Modelo-(1.0).tflite (tflite, 56548 bytes, 16 tensors)

sequential/conv1d/BiasAdd/ReadVariableOp f4 [16]
000000 bf 86 06 bd 6c 0d 23 3d 60 0d 73 3d a3 99 29 3d
       -0.032843348 0.039807722 0.059338927 0.041406285
000010 e3 6f 9a 3c d6 d5 88 bc 98 84 08 3c 1a a5 a4 bd
       0.01885218 -0.016703527 0.008332394 -0.08039303
000020 8d a0 29 bd 18 06 3b bd db de 77 bd 19 a3 6a 3d
       -0.04141288 -0.04566011 -0.060515266 0.05728445
000030 1a 04 03 bc 98 2a a5 3c 9c de 17 3c c9 42 40 bc
       -0.007996583 0.020161912 0.009269383 -0.011734673

sequential/conv1d_1/BiasAdd/ReadVariableOp f4 [32]
000000 82 75 ce 3c 18 cc 0d 3d 02 76 ac 3d 28 49 b0 3c
       0.025202516 0.034618467 0.08420946 0.021519259
000010 9e 91 d2 3b 89 45 40 3c 77 b0 c3 3a af e8 d5 bc
       0.0064260503 0.0117353285 0.001492991 -0.026111929
000020 db 17 2e ba 86 bc 8d 3b 6a 57 41 bb d4 a2 ff bc
       -0.0006641128 0.0043254523 -0.0029501566 -0.031205572
000030 b8 08 b4 3c 01 e3 6a 3d f0 51 f9 3c 13 8b 42 bd
       0.021976814 0.057345394 0.030434579 -0.047495913
000040 9d 9e 38 3b 05 53 c0 bc 7d 6a 48 3c 94 1b 2a 3d
       0.0028170713 -0.023477087 0.01223242 0.041530207
000050 b1 f9 38 3d c0 86 51 bc ab 78 40 3d 0c 4d 05 bd
       0.04516 -0.012788475 0.046990078 -0.03254418
000060 95 8d d0 bb 0a d6 b1 3c d9 da 2b 3d 3c 85 91 3c
       -0.006364534 0.021708507 0.041956756 0.017763726
000070 a5 37 6e bd 06 8d fa 3b 07 30 21 3d d1 31 da bc
       -0.058158536 0.007646206 0.039352443 -0.026635082

sequential/conv1d_2/BiasAdd/ReadVariableOp f4 [64]
000000 5f 57 6f 3c 84 cc 64 bc a2 78 68 3c 8c 7e 6d 3c
       0.014608233 -0.013964776 0.014188917 0.014495503
000010 9d d8 18 3d 65 5d 5d 3c 87 6c d5 bc cd 92 8a 3c
       0.037315954 0.0135110365 -0.026052726 0.016915703
000020 00 a2 2d bd 84 b3 56 3c 56 ef 12 bd ff 00 b7 3b
       -0.042390823 0.013104323 -0.03587278 0.0055848355
000030 fb be 64 3d fe 35 60 bb af 39 ba 3c 6a ec 94 bd
       0.055846196 -0.003421187 0.022732584 -0.07271655
000040 86 f6 6d 3c b7 7e 35 bc 0d e6 fe 3c e3 0f 58 bd
       0.014524108 -0.011077574 0.031115556 -0.052749526
000050 5a b5 b0 3b d0 30 4c bc 27 dc 00 bd 33 ad 24 bb
       0.0053927125 -0.01246281 -0.031459954 -0.002512765
000060 c3 28 9f 3b 87 95 05 3d f5 75 ce 3b 23 f3 23 3d
       0.004857154 0.032613304 0.0063006827 0.040026795
000070 a8 4e 00 3d e2 31 7b bc 8c 77 33 3c 2a af 10 bd
       0.031325012 -0.015331717 0.010953795 -0.0353233
000080 0c b3 01 3d 8a ba ce 3d 92 fa df bc 6f f3 b9 3d
       0.031664893 0.10094173 -0.02734116 0.090796344
000090 0c c8 8f 3c 03 cf 84 bd c3 f3 17 3d af fb c3 bb
       0.017551444 -0.06484797 0.037097704 -0.0059809308
0000a0 14 e5 c1 bc 2e ad 8f 3c f1 ca ed 3c 3f fb 46 3d
       -0.023668803 0.017538633 0.029027434 0.04857945
0000b0 4a 1f 00 3d ed 64 58 3c 3b e7 88 bb 90 76 b0 3b
       0.03127984 0.013207656 -0.0041779554 0.0053852275
0000c0 35 30 8c 3c 6b d9 80 bc de d0 81 3c 1f 6d 01 3d
       0.01711283 -0.015728673 0.015846666 0.031598207
0000d0 5b b4 bf 3c 4b b8 95 3c 8d d5 0e bd 61 10 47 3c
       0.02340143 0.018276354 -0.034871627 0.012149901
0000e0 6b 96 af 3c 0d 54 c6 3b 05 ce 10 3c 91 79 a7 bd
       0.02143403 0.0060525 0.008838181 -0.08177484
0000f0 51 e4 e3 3c 75 9e 99 bd d8 f2 98 bc f4 9d 2e 3a
       0.02781883 -0.075009264 -0.018670484 0.000666111

sequential/conv1d/Conv1D f4 [16, 1, 7, 3]
000000 0a 09 b6 bc 75 3a 98 bd f1 4f 39 bd a9 45 ee bd
       -0.022221107 -0.07433025 -0.045242254 -0.1163438
000010 47 5a 33 be 40 57 ee 3d d3 5a 8b 3d d3 6f 6d 3d
       -0.17514907 0.11637735 0.06804433 0.057967972
000020 a2 44 0f bd 3d 68 32 be 6d 47 49 be 98 71 82 3d
       -0.034977563 -0.17422576 -0.19656153 0.063693225
000030 98 9a 54 be b9 a6 c0 3d 6f 0c 42 3b c9 42 41 be
       -0.20762098 0.094068 0.0029609462 -0.18873133
000040 5b 39 78 bd 3d f9 19 be c5 5a b3 bc e6 22 e3 bd
       -0.060601573 -0.15036483 -0.021893868 -0.11090641
000050 c7 3e 29 3e 58 4e 3b be 60 75 18 bb d2 fd 68 bc
       0.16527854 -0.18291605 -0.002326332 -0.014220672
000060 e7 f0 08 3d 55 1a a5 3c 9d 24 6f bd 6c 90 b6 bc
       0.033432867 0.020154158 -0.058384527 -0.022285663
000070 f0 71 4c 3e b1 2c 73 3d 07 5b 44 3d 93 84 0b 3e
       0.19965339 0.059368793 0.047938373 0.13624792
000080 3f 2d 56 3e 71 72 5c bd 7f ac 1f 3d 1c b9 98 3d
       0.20915698 -0.053820077 0.038982864 0.07457182
000090 6e da bf bd c9 9b a7 bc 9a 52 44 be 3f 78 5d 3e
       -0.09367834 -0.020460026 -0.19172135 0.21627901
0000a0 66 b5 68 be 9a 95 cc bd 9c 63 ad bd 16 00 0e bd
       -0.22725448 -0.09989472 -0.084662646 -0.03466805
0000b0 71 5a f4 3d 03 35 e3 3c 97 c2 77 bd fc a4 25 3e
       0.11931313 0.027735239 -0.06048831 0.16176218
0000c0 10 1b 2e bd cb 68 16 be 33 05 01 3b e2 80 d2 bc
       -0.042506278 -0.14688413 0.0019686937 -0.025696222
0000d0 6f 75 cc bd af 4c e0 bd 20 c9 f0 3d 6e 50 07 3e
       -0.09983336 -0.10952126 0.117571115 0.13214275
0000e0 8c c9 29 be f5 ec 5e be ea f7 3e bc e9 64 c1 bd
       -0.1658079 -0.2177008 -0.011655787 -0.09443075
0000f0 a4 c5 a1 bd 4a 31 1e 3c ee 92 c4 3d 87 73 2e bc
       -0.07899025 0.009655306 0.09598337 -0.010647661
000100 f2 06 10 be 1c f3 00 3e 72 ff 4c bd d3 e7 d9 bd
       -0.1406515 0.12592739 -0.0500483 -0.1063992
000110 ec 83 cc bc b6 6e 62 3d 57 f1 61 be de a5 b0 bd
       -0.024965249 0.055281363 -0.2206472 -0.08625387
000120 5a 2f 1e be cc d0 f9 3d 2c 75 64 3d cb 0e 37 3c
       -0.1544775 0.12198028 0.055775806 0.0111729605
000130 6d 39 37 be ed ed 62 be 48 81 ed 3d b1 88 3a 3e
       -0.17893 -0.22161074 0.11596924 0.18216206
000140 d7 00 d5 bd f4 f4 f0 bc f3 ae 27 be f9 34 21 be
       -0.10400551 -0.029413678 -0.16375332 -0.15742864
000150 25 9b 10 be 6c b5 20 3d 3d 7b 55 3e d2 2f 88 3d
       -0.14121683 0.039235517 0.20847793 0.06649746
000160 4c ef d9 3c 8a 70 bd bd 47 fd af bd 79 f9 0d 3e
       0.026603363 -0.09249981 -0.08593231 0.13864698
000170 26 9d 1f 3d 1d 58 05 3e 85 a5 bc bd 31 3d 93 bc
       0.038968228 0.13021894 -0.09211258 -0.017973514
000180 50 27 1e 3c f7 4b 2b 3e 54 8b a9 3d b0 7d 13 3d
       0.0096529275 0.16728197 0.08278528 0.036008537
000190 70 ed 20 be ea 89 fe bd dd e2 24 3e 3a 65 be 3d
       -0.15715575 -0.12428649 0.16102166 0.09296651
0001a0 3d 82 29 3d 26 d1 c0 3d d3 23 34 3e e5 32 a3 3d
       0.04138397 0.09414892 0.17591791 0.07968692
0001b0 66 1e 37 be 8a 7e 71 bd 36 5a 8c bc a1 1d 11 be
       -0.1788269 -0.058958568 -0.01713286 -0.14171459
0001c0 42 db 5b 3d e2 df 7c bd ae 15 7f bd 95 e4 c5 bd
       0.053675897 -0.06173695 -0.062276535 -0.09662739
0001d0 36 f1 e5 3c 50 df 37 bc c5 79 2d 3e 5b 07 48 3e
       0.02806912 -0.011222675 0.16940983 0.19534056
0001e0 f9 aa 43 be 56 b8 4f 3d b4 7d a0 3d d2 b2 e4 bc
       -0.1910819 0.050712906 0.07836476 -0.0279173
0001f0 36 44 17 3d bc 30 2f 3e ea 07 eb bd 80 8b cb 3d
       0.036930285 0.17108434 -0.11476119 0.09938717
000200 c8 5d 0b be 1c 73 c0 bd ff a7 32 bd 4e e3 c0 3d
       -0.13609993 -0.09396955 -0.043617245 0.09418355
000210 5d 60 3e 3d 9f 2b 15 be c5 91 2b 3e ed 5f cf bd
       0.046478618 -0.14567421 0.16754825 -0.10125718
000220 a5 8a 10 be 7c 8d e4 bd d5 8a 52 3d 4c c1 20 be
       -0.14115389 -0.111597985 0.05140193 -0.15698737
000230 f7 7d 0d 3e b3 5c 57 3d ab 78 1b 3e 74 d4 3e 3d
       0.13817583 0.05257864 0.1518275 0.04658933
000240 f4 d3 5a 3d a3 2e 1c bd 05 cf 64 3e 2e 33 5e 3d
       0.05342479 -0.038130414 0.22344597 0.054248028
000250 db 0d 02 be a0 b6 07 bd 69 ea cf 3d ae 50 ff bd
       -0.12700598 -0.03313315 0.10152132 -0.1246656
000260 5c 47 1c be 5d 47 92 3d 34 e7 90 bd b4 a1 d7 bb
       -0.15261596 0.07142518 -0.070753485 -0.006580556
000270 1d 8a 3b 3e e8 4d 35 bd d9 ec 9b bc a8 1d 8a bc
       0.18314405 -0.04426375 -0.019033836 -0.016859844
000280 43 d0 92 3d 57 6f fa 3c 71 03 51 3e be ee 13 3e
       0.07168629 0.03057067 0.20411469 0.14446542
000290 54 b8 87 bc 61 45 8f 3e 2c cc c2 3d 74 5d 85 bc
       -0.016567387 0.2798262 0.09511599 -0.016279913
0002a0 dd 84 1d 3e 85 be 2f 3e 81 ed d9 3d 00 79 c7 3d
       0.15382715 0.17162521 0.106410034 0.09739876
0002b0 cf 99 0e 3d b6 a7 45 bd 19 4b a2 3d 35 e6 17 bd
       0.034814652 -0.048255645 0.0792448 -0.037084777
0002c0 cc ba 18 3e e1 08 19 3e eb 57 33 3e 59 12 37 3e
       0.14915007 0.14944793 0.17514007 0.17878093
0002d0 34 a3 27 3e 9d 2c b3 bd 8a 5b 87 bd 0a e6 1d be
       0.16370851 -0.08748744 -0.066092566 -0.15419784
0002e0 bb 4e 82 3d ce 66 67 be 46 62 0b 3c d2 88 ad 3d
       0.06362673 -0.2259781 0.008507317 0.08473362
0002f0 97 60 ec bd ad dd 31 3e 03 78 8e 3d fb e6 ca 3c
       -0.115418606 0.17369719 0.06956484 0.024768343
000300 03 e9 00 be 4d fc 04 3e 78 69 96 bd 67 fd 59 3d
       -0.12588887 0.1298687 -0.07344335 0.05322018
000310 54 77 a5 bb ae 87 48 3e 58 84 28 3e 9e 2c 07 3e
       -0.0050496254 0.19583008 0.16456735 0.13200614
000320 b3 96 2a 3e 68 f4 36 3e b0 7f 37 be ac 52 3a 3e
       0.1665905 0.17866671 -0.17919803 0.181956
000330 a7 9f 46 3e f8 69 c6 3d 9c e7 a9 3d 49 9b 96 bd
       0.1939684 0.09688181 0.08296129 -0.07353837
000340 a4 f8 e5 bd 88 7e 30 3c a9 83 f0 bc 4d 4b 4a 3d
       -0.11229065 0.010772355 -0.029359655 0.04938822
000350 b3 23 f5 3d 31 97 2e 3d 04 c6 0e 3e c2 b6 c8 bb
       0.119697 0.042624656 0.13942724 -0.006125302
000360 58 25 7b bd 1e 46 10 bd 75 23 40 3e 59 d4 87 bd
       -0.06131491 -0.03522312 0.18763526 -0.06632299
000370 20 81 89 3d da e0 26 be 64 88 22 3e aa f2 38 be
       0.06714082 -0.16296712 0.15872341 -0.18061319
000380 85 03 86 3e e3 b6 f2 3d 91 43 6f 3d 6f 46 3f 3e
       0.2617456 0.11851289 0.058414046 0.18679212
000390 b8 ab 2d be 45 b7 42 3e b5 e6 5a 3e df 4f 3e be
       -0.16960037 0.19015224 0.2137707 -0.18585156
0003a0 25 bb f4 3d 9b ed 51 3e 54 5b 15 be b8 87 36 3d
       0.119497575 0.20500796 -0.1458562 0.044563025
0003b0 49 67 48 be 6d 16 a0 bd 4c d9 ee 3d 6c f0 f1 bd
       -0.1957065 -0.078167774 0.1166254 -0.11813435
0003c0 90 26 c9 ba 22 a7 a6 3b a0 45 86 3c 6e 2c 58 be
       -0.0015346576 0.0050858418 0.016390622 -0.21110699
0003d0 fa 5b 43 be d3 6a e6 3b 47 5a 21 3e 70 55 2f 3e
       -0.19078055 0.0070317774 0.15757094 0.17122436
0003e0 df 87 29 be 43 db 34 be 52 a0 17 be 3f 67 03 3e
       -0.16555737 -0.17661767 -0.14807251 0.12832354
0003f0 fa e3 3c be ee 74 ff 3d 40 5f 0d be 8b d8 3c 3b
       -0.18446341 0.124734744 -0.13805866 0.0028815593

sequential/conv1d_1/Conv1D f4 [32, 1, 5, 16]
000000 e7 e5 d6 bd d8 16 00 be 92 04 1a bd 6d ab fe 3d
       -0.10493069 -0.12508714 -0.037602015 0.124350406
000010 13 13 f6 bd 19 5d 92 bd 77 9f c5 3b 3d 75 80 bd
       -0.12015357 -0.07146663 0.0060309726 -0.062723614
000020 86 d7 b6 3d 8a f1 ff bd 6a e3 a0 3d ed 0d 41 3c
       0.089278266 -0.12497242 0.07855876 0.011783105
000030 4f 47 81 bb 06 32 43 bd ae 53 74 bd 68 70 12 3d
       -0.003945268 -0.047655128 -0.059650116 0.03575173
000040 a6 67 29 be 47 08 c1 bc 3c 06 03 3e 48 24 89 bc
       -0.16543445 -0.023563517 0.12795347 -0.016740933
000050 26 1b 12 3e d9 73 0b be ba e4 db 3d 1b 76 2b bb
       0.14268169 -0.13618411 0.107369855 -0.0026162926
000060 73 1b 90 bd d0 e5 c5 bd 5a 59 a0 3d f4 d1 75 bd
       -0.070364855 -0.09662974 0.078295425 -0.06001468
000070 aa 37 d0 3c 76 8d 7a bc 76 e5 89 bd 4e 53 9f 3d
       0.025417168 -0.015292516 -0.06733219 0.07779561
000080 93 87 21 3e fe 77 da bd dc c9 96 bd a2 a6 4d bd
       0.15774374 -0.10667418 -0.0736272 -0.05020774
000090 83 9d 11 3e b4 c9 40 bb c0 4e 20 3e c7 fe 47 3d
       0.14220242 -0.00294171 0.1565504 0.04882696
0000a0 e7 68 56 3e ca fa dc bd 6b 1c 2a 3e 7f fb 34 3c
       0.20938455 -0.10790022 0.16612403 0.0110462895
0000b0 03 e7 64 3d 9a f3 87 3d 8b ce 8a 3d f8 5e 6d 3c
       0.055884372 0.0663826 0.06777676 0.014487974
0000c0 48 c8 17 bd b3 67 03 3e 76 7e d1 bc 25 14 ef 3d
       -0.037056237 0.12832527 -0.025572997 0.11673764
0000d0 ad f4 fe bd ea a2 4e 3d b7 6e 07 3e e3 01 84 bd
       -0.12449012 0.050448336 0.13225828 -0.06445672
0000e0 5f 6d 42 bc e5 93 10 3e 87 ac 2f bd 3d 02 b9 3d
       -0.011866896 0.14118917 -0.042889144 0.0903363
0000f0 75 c1 1a 3c 0a 9d cf 3d 58 99 16 be 11 30 f7 bd
       0.009445538 0.10137375 -0.14706933 -0.12069715
000100 7b fa b1 3c 2f 93 af bd 07 52 97 bc 99 62 14 be
       0.021725884 -0.08572995 -0.01847173 -0.14490737
000110 cd 9b 28 bd 46 af 00 3e 9b 34 85 3d 81 35 94 3b
       -0.04116421 0.12566862 0.06504174 0.0045229797
000120 2b 03 56 3c 85 c7 69 3d e1 bc a8 3c eb d9 fc 3d
       0.013062279 0.057075042 0.020597877 0.12346252
000130 71 1d 63 bd fb 40 0e bc 1e 15 94 bd 87 b3 72 bd
       -0.055448 -0.008682485 -0.0723059 -0.059253242
000140 ab cb 2c be 2f 0e 1a bc 9a f7 00 be b0 c0 b1 bd
       -0.16874568 -0.009402796 -0.12594453 -0.0867933
000150 86 2a d8 bd e8 d4 92 bd 31 f0 93 3d 34 cd 1e 3e
       -0.10554986 -0.07169515 0.07223547 0.15507966
000160 34 8f e0 3d c1 af 03 be 3d 1e 96 3d a9 6e c1 3c
       0.10964814 -0.12860014 0.07329986 0.023612337
000170 19 99 c7 bd 3d b0 b7 3c f5 12 b7 bc f5 17 00 3e
       -0.09745998 0.022422904 -0.022347907 0.12509139
000180 df c7 0c 3e f2 d6 eb 3d c2 a8 cd 3d 0e 6d 93 bd
       0.1374812 0.11515607 0.100419536 -0.07198535
000190 d1 e5 2c 3e 5c 17 17 bd 46 7c 26 be a6 58 b0 bd
       0.16884543 -0.03688751 -0.16258344 -0.08610658
0001a0 9f aa 0a be a7 8d 89 3d 5a 3a ab bd 0b ce 26 be
       -0.1354165 0.06716471 -0.08360739 -0.16289537
0001b0 10 f5 ac 3b 56 3a 73 bd a7 14 a8 bc f8 f5 c7 bb
       0.005278237 -0.059381805 -0.02051766 -0.00610232
0001c0 f9 66 d4 bd f0 84 20 be 61 84 8b bd fa cb 6c 3c
       -0.10371203 -0.15675712 -0.06812359 0.014452929
0001d0 9c 0e b0 bd 78 b6 e6 bd f4 d0 61 bd d0 d2 2d 3e
       -0.085965365 -0.11265272 -0.055130914 0.1697495
0001e0 22 47 6c bd b9 d6 01 3d cf f6 41 bd a9 76 74 3d
       -0.057685025 0.031698916 -0.047354516 0.059683476
0001f0 07 e4 0b 3c 9f e0 a3 bd eb 1f 7d bd 6d 5c 56 bd
       0.008538253 -0.080018274 -0.061798017 -0.052334238
000200 f7 ce a6 bd 36 71 d0 bd 1d ec a7 bd 83 52 30 be
       -0.08144944 -0.10177843 -0.08199332 -0.17218976
000210 16 af a0 3d 14 5d 49 bd 09 70 2d be ce 12 8d bd
       0.07845895 -0.04916103 -0.1693727 -0.06888352
000220 f2 52 1d bd de 8d 1d 3e ef 84 fb bd 6b 8d c4 3d
       -0.03840918 0.1538615 -0.122812144 0.09597286
000230 a5 6d df bd b7 b3 17 3e 13 13 49 3d e3 29 ef bd
       -0.10909585 0.1481465 0.049090456 -0.11677911
000240 6b df f7 3c b9 0c ea bd fe a8 18 be 36 e7 d8 bd
       0.030257901 -0.11428208 -0.14908215 -0.10590975
000250 9f 99 01 3e c1 cf 81 3d 6a 6b 2a be 3c 4f 8f 3d
       0.12656258 0.06338454 -0.16642538 0.06997535
000260 e7 0d 00 bd 1b ee e0 3d 64 5c 25 be ce 2e c0 bd
       -0.03126326 0.10982915 -0.16148525 -0.09383927
000270 c1 ed 95 bd de 23 93 3b 35 f8 fd bb 33 32 59 3d
       -0.073207386 0.0044903597 -0.007750536 0.05302639
000280 a4 35 e6 3d 59 df 9b 3d 35 13 89 3d ba 73 82 3d
       0.112407 0.076109596 0.066931166 0.06369729
000290 3a c0 18 3d 1c ff de 3d 86 12 03 bc e4 7b e8 bd
       0.037292697 0.10888502 -0.008000022 -0.11351755
0002a0 69 02 ac bd f4 e9 62 bd 24 a4 1a be 16 68 d3 bd
       -0.08398897 -0.055398896 -0.15101677 -0.10322587
0002b0 20 02 e5 3d d5 da 85 3d d7 42 14 be 9d 78 2a bc
       0.11182046 0.065358795 -0.14478622 -0.010404733
0002c0 53 93 c2 bd 4b 89 97 bd 5f 54 63 3d 28 a9 d4 bc
       -0.09500756 -0.073992334 0.055500384 -0.025959566
0002d0 6d a8 74 bc f3 5c 51 bd 2a 66 4b bd c2 59 07 be
       -0.014932734 -0.051114034 -0.049657978 -0.13217834
0002e0 75 07 b0 bc 65 12 81 3d c4 f5 04 bd 1a c6 d5 3d
       -0.02148793 0.063023366 -0.032460943 0.104381755
0002f0 e7 4e 96 3d 49 36 cd bd 02 3d 86 3d 4c f7 ea 3a
       0.07339268 -0.1002012 0.06554605 0.0017926483
000300 07 ce 77 3c 37 17 b1 3d 1d a4 f4 bd f1 a4 bc 3d
       0.015124804 0.08647006 -0.119453646 0.092111476
000310 5b 40 32 3d f5 8c d5 bd 29 22 04 3e ee 0a 3b bc
       0.043518405 -0.10427276 0.12903656 -0.01141618
000320 45 0c 1a be e1 6a 32 be 1e 8d 6f 3c c5 46 ba 3d
       -0.15043743 -0.17423584 0.014621047 0.090955295
000330 5f 3b b3 bc e4 a8 a9 bc 78 3b d8 3d 63 c9 3d bb
       -0.021878896 -0.020710416 0.10558218 -0.0028959147
000340 47 58 ae bd 5f 83 8a bd be 8c bd 3d 51 c1 71 bd
       -0.08512931 -0.06763338 0.0925536 -0.05902225
000350 da 18 94 3d 3f 6a 9c bd d3 0a 0e bd 85 97 e2 3c
       0.072313026 -0.07637452 -0.03467829 0.02766014
000360 ff fa c8 bd de 8a 3a bd 51 96 0e 3e 08 2e a8 bd
       -0.09813499 -0.04554259 0.13924529 -0.08211905
000370 bc ca 62 bd bc 5b 0b 3e ad 27 e8 3b aa 76 f5 3d
       -0.055369124 0.13609213 0.007084808 0.11985524
000380 25 0d f1 3d 4f 53 36 3d 6f 92 4b bd e2 db ce bd
       0.11770085 0.044513043 -0.049700197 -0.10100533
000390 50 19 dc 3d ea 9c 93 3b fa 15 99 bd c4 d3 c2 3d
       0.107470155 0.0045047896 -0.07474895 0.09513047
0003a0 ff 75 a6 3d 77 f8 2b 3e eb c8 0f 3e e3 46 91 bd
       0.08127975 0.16794 0.14041488 -0.07093599
0003b0 39 2b ca 3c 67 73 55 bd 85 bb 22 3e 95 18 ff 3d
       0.024678813 -0.05211201 0.15891846 0.124558605
0003c0 f3 d0 5a 3d ec 04 ba 3d b7 16 b8 3b 44 1b 5f 3d
       0.053421926 0.0908297 0.005617942 0.054469362
0003d0 b5 e1 0f bd 57 60 bb 3d 9b 92 b1 bd 5c e2 ce bc
       -0.03512736 0.09149235 -0.08670541 -0.025254421
0003e0 f7 59 ab bd b2 41 88 3d a1 25 89 3d 10 93 d5 bd
       -0.08366769 0.066531554 0.0669663 -0.104284406
0003f0 30 55 a5 3d 75 05 a1 3c fb 62 89 bb 59 93 f2 bd
       0.08072889 0.019655922 -0.0041927076 -0.118445106

sequential/conv1d_2/Conv1D f4 [64, 1, 3, 32]
000000 82 6e b7 3c 18 e4 35 3d c1 e8 ee bc 7c a3 a0 bb
       0.022391561 0.04440698 -0.02916372 -0.0049023014
000010 0c 07 ba 3d b9 03 a9 3c 4c fe bf bd 10 6b 3e 3d
       0.09083375 0.020631658 -0.09374675 0.04648882
000020 a2 d3 fa 3d 1a e7 3d 3c a4 6b fa bb 61 3e 00 3e
       0.12247397 0.011590743 -0.0076422263 0.12523796
000030 e9 d8 63 bc 80 e7 d6 3d 4f 7f 9c bd fc a4 0b 3d
       -0.013906696 0.10493374 -0.0764147 0.03409289
000040 bf c4 5f bd b7 e8 36 3d 09 94 40 3d 5d 61 07 be
       -0.05463099 0.044655528 0.047016177 -0.13220735
000050 40 6c 25 3d c4 ee d3 bc 32 42 30 3d 0d 0f 5a bd
       0.04038644 -0.025870688 0.04303188 -0.05323701
000060 bf 9c 89 3d 82 a7 f7 bd 63 aa 63 3d be d2 0f bd
       0.0671935 -0.120924965 0.055582415 -0.03511309
000070 17 a3 fc bd 44 fb bb bc ec 6a 33 bd 5d 2b 1a be
       -0.123357944 -0.022946961 -0.04380314 -0.15055604
000080 ec 14 13 bd 06 69 57 3d df e3 68 bd 11 73 87 bd
       -0.035908625 0.052590393 -0.05685794 -0.06613744
000090 0b 05 c8 3d 2f 7a 22 bd 7e 66 ad 3c 03 6e 01 be
       0.09766587 -0.039667305 0.021167036 -0.12639622
0000a0 28 2e 9b bd d7 df 8e bc 5e 63 7f 3d e6 7d 63 bd
       -0.07577163 -0.01744072 0.062350623 -0.055539988
0000b0 4e 31 1a 3b 61 d5 03 be c4 67 8a ba 6f 65 92 3d
       0.0023527923 -0.12874366 -0.0010559489 0.07148253
0000c0 7f 57 49 be 37 2e ec 3d 47 67 01 be 1e 86 76 bd
       -0.19662283 0.11532252 -0.12637053 -0.060186498
0000d0 7b 99 86 3d 81 ed 2b 3d f7 d5 1e be 85 6e 7e bd
       0.06572243 0.04197455 -0.15511309 -0.06211712
0000e0 a3 78 1e be dc a4 3c 3d 76 38 8e bd 04 b1 7b 3c
       -0.15475707 0.04605566 -0.06944363 0.015362028
0000f0 5d cf c0 3d e8 c5 d1 bd 35 0f d4 3d d6 27 28 3d
       0.094145514 -0.10242826 0.10354463 0.041053616
000100 d7 2d f0 3c a3 35 19 3d b7 00 06 be 1f 68 b0 bd
       0.029318733 0.037404668 -0.1308621 -0.086136095
000110 fa 84 9c bd fc 98 0f be 73 1a 5e bd 11 6a cd 3d
       -0.07642551 -0.14023203 -0.054224443 0.10029996
000120 3f d4 a9 b8 2f cc 34 3d e4 f9 92 bd 9c 3e 81 bc
       -8.098082e-05 0.044140037 -0.07176569 -0.015776925
000130 e6 d8 78 3d 92 a4 bc 3c 50 93 ab bd 6c d1 66 bd
       0.060753725 0.023027692 -0.08377707 -0.056352064
000140 43 5b 4b be c9 44 32 3d b8 31 a1 3d 30 54 84 bd
       -0.19859032 0.04352263 0.07870811 -0.0646137
000150 19 9d 2b 3d b6 f1 1c bd d3 29 f5 bd 07 4a b8 bd
       0.041897867 -0.03831645 -0.11970868 -0.089984946
000160 f9 7c e4 bc 07 8c cd bd 1d 32 b7 3c 42 a5 8c 3d
       -0.027891623 -0.10036474 0.022362763 0.06867458
000170 14 61 26 bd d5 02 bf bd de 13 22 3d 09 02 18 bc
       -0.040619925 -0.09326712 0.039569728 -0.009277829
000180 94 ee 19 be 57 36 44 3d c8 b5 24 be 05 b4 8b 3d
       -0.15032417 0.047903385 -0.16084969 0.068214454
000190 88 8b df bd ad cd 9d bd 6c 1e f7 bd eb 18 bd bc
       -0.10915285 -0.07705245 -0.120663494 -0.02308317
0001a0 de 41 e9 3d 37 4c 82 3d 6a 14 95 bc 8f 69 9b bc
       0.11389516 0.06362193 -0.01819821 -0.018971233
0001b0 80 93 11 be be 77 32 be 58 d8 33 be e5 09 81 3c
       -0.14216423 -0.1742849 -0.17562997 0.015751788
0001c0 92 6e 12 be af 63 8e 3d 7b 33 bd 3d 88 31 cf 3d
       -0.14299992 0.06952607 0.09238335 0.10116869
0001d0 d0 5e e2 bd 1c cf 83 3c db 93 b1 bc 0c 5f 0b 3b
       -0.1105324 0.016089968 -0.021676948 0.002126637
0001e0 bf fb 7e bd c3 3d 75 bd 3b 95 a7 bc 71 7b a7 bd
       -0.062251803 -0.059873354 -0.0204569 -0.081778415
0001f0 ab 18 93 3c f0 18 05 bd 6d 16 2a 3d af 99 84 3d
       0.017956099 -0.032494485 0.041525293 0.06474625
000200 36 34 d2 3d cc 36 d6 3b cc 8f 76 bc 08 a2 ae 3c
       0.10263865 0.006537294 -0.015048932 0.021317497
000210 69 c9 af bc d7 76 b1 3d f3 de db bd 11 ee 0e 3a
       -0.021458345 0.08665245 -0.107358836 0.0005452345
000220 62 15 e1 bd 9c 1d 06 bd f9 e5 ee 3c c2 e7 31 be
       -0.109904066 -0.03274308 0.029162394 -0.17373565
000230 26 23 cd 3d db d5 22 3c 1f ae 6a bd 46 26 43 3c
       0.1001647 0.009938682 -0.05729496 0.011910981
000240 85 a3 a8 3d 8f f9 c5 bc 83 d3 f8 bd cb 70 d0 3c
       0.08234314 -0.02416685 -0.12149718 0.025444409
000250 44 0b 91 bd 29 59 cc 3d 12 45 a8 3d 6e e9 f1 3b
       -0.07082227 0.099779435 0.08216299 0.0073825633
000260 20 2f 72 bb d3 53 85 3d c7 d4 52 bd 7f 49 e8 3a
       -0.0036954358 0.06510129 -0.05147245 0.0017722099
000270 8d 55 bd bd ef 20 a5 bc 3b 34 e4 bc 67 8b 56 bd
       -0.09244833 -0.020157306 -0.027856937 -0.05237904
000280 61 c2 01 3e fa b8 9d bd 20 15 9f 3d 3b 25 ad 3d
       0.12671806 -0.07701297 0.07767701 0.08454367
000290 72 5e eb bd 18 8c 7d 3d d2 04 4c 3c 83 87 9e bd
       -0.114926234 0.061901182 0.012452321 -0.077406906
0002a0 bf 72 18 3e 11 5b 55 bd ca 0a 84 3c aa 6b de bb
       0.14887522 -0.0520888 0.016118426 -0.006787737
0002b0 b0 fb 34 bd b7 e2 92 3d b7 8d d5 3d 54 5e 25 3e
       -0.04418534 0.07172149 0.104274206 0.16149265
0002c0 b0 bb be 3c 7a ed f7 3d f6 b5 32 3d 05 f6 2f 3c
       0.023282856 0.12105842 0.043630563 0.010739808
0002d0 e0 61 ee 3d 36 77 0e bd ca 73 d6 bc 10 05 c2 bb
       0.11639762 -0.034781657 -0.02617826 -0.0059210137
0002e0 4e 98 08 3e c4 39 c8 bd 93 6e 23 be 5b c9 d8 3d
       0.1333935 -0.09776643 -0.1596015 0.105852805
0002f0 b7 4e d8 bd 53 0d 05 be f5 08 cc 3c ef 02 28 3d
       -0.10561889 -0.12993364 0.024906615 0.041018423
000300 29 4d 6e 3b 10 4c b2 bd 7e fe f6 bc ac 52 bc bb
       0.003636191 -0.08705914 -0.030150648 -0.00574716
000310 fa bf 43 bc 4c 25 b9 3d 1f d5 b8 3d 83 e5 c5 3d
       -0.011947626 0.09040317 0.090250246 0.096629165
000320 a8 82 2c 3d 94 f8 6a 3b 67 94 2c bd fd 6a 11 bd
       0.04211679 0.003585373 -0.042133715 -0.035502423
000330 30 c7 17 bd 25 b5 ae bd aa 9b 18 be 57 d6 b5 3d
       -0.037055194 -0.08530644 -0.14903131 0.08878773
000340 e3 6a fc bd f3 23 74 bb d3 dd 93 bd 50 48 21 be
       -0.123250745 -0.0037252873 -0.07220044 -0.15750241
000350 e5 60 be 3d 4c b2 55 3c 04 fc 0d 3e 78 e2 bf bd
       0.09295825 0.013042998 0.13865668 -0.09369367
000360 5a aa b2 3d a3 ec a5 3c 2c b7 d8 3d 00 79 e7 bc
       0.08723898 0.020254439 0.10581812 -0.02825594
000370 71 21 4a bc 91 01 b9 3d a8 38 15 3c df 6e 04 bd
       -0.012337075 0.09033502 0.009107746 -0.032332297
000380 85 b0 70 bc 2b 05 a9 bc 4f a2 1c 3d e4 50 4f bd
       -0.014690523 -0.020632347 0.038240727 -0.050614253
000390 0d c2 a2 3d 0c 21 9f bd a7 cb 70 bd c5 fa 8d 3c
       0.079471685 -0.07769975 -0.058787968 0.01733149
0003a0 49 a1 91 bd 7e 99 16 be 3b 69 eb bd 7d 7a 74 3d
       -0.07110841 -0.1470699 -0.114946805 0.059687126
0003b0 c5 3b de 3d 29 fc 13 be 95 cd ea 3c 44 18 dc bd
       0.10851244 -0.1445166 0.028662482 -0.10746816
0003c0 e9 fe 09 be 76 ed 19 be da 13 b7 bd c1 3d 06 3b
       -0.13476147 -0.1503199 -0.08939333 0.0020483586
0003d0 18 a0 59 bd fc 44 cd 3d fc 92 6f bd eb f5 47 3d
       -0.053131193 0.10022923 -0.058489785 0.04881851
0003e0 a3 bc c6 bd 68 ea 03 3e ce 6f fa bb 04 4b 92 bd
       -0.09703948 0.12882388 -0.0076427227 -0.07143214
0003f0 0e d2 fa bd 69 95 38 3d ec a9 a9 bd 0c b6 c4 bd
       -0.12247096 0.045064364 -0.08284363 -0.09605035

sequential/batch_normalization/batchnorm/sub f4 [16]
000000 93 15 2c be ac c5 ee be 4a 01 4b be 82 cc 5b be
       -0.16805105 -0.46635187 -0.1982471 -0.21464732
000010 dc 23 99 bf 12 8a 05 bf 31 d9 de be 57 39 a5 bf
       -1.1964068 -0.52163804 -0.4352508 -1.2908124
000020 50 c8 b0 bf c5 68 c1 bf a6 65 53 bf f7 ad a5 be
       -1.381113 -1.5110098 -0.8257698 -0.32359287
000030 a1 76 68 bf b4 a5 99 bf 6e 11 83 be 2d f0 b8 be
       -0.90806013 -1.2003694 -0.25599235 -0.3612074

sequential/batch_normalization/batchnorm/mul f4 [16]
000000 dc e9 03 41 07 05 94 40 57 26 05 41 4b 1b f1 40
       8.244595 4.6256137 8.32186 7.5345817
000010 bf f1 a6 40 f2 2d 80 40 8f 64 ad 40 e7 41 28 40
       5.21701 4.0056086 5.418525 2.6290224
000020 a9 f4 46 40 21 c2 3f 40 05 b6 59 40 cd 6c ad 40
       3.1086829 2.9962237 3.4017346 5.4195313
000030 27 61 90 40 cb d8 45 40 00 e6 f5 40 01 25 88 40
       4.5118594 3.091357 7.684326 4.254517

sequential/batch_normalization_2/batchnorm/sub f4 [64]
000000 66 b9 21 bf 62 73 37 bf 18 02 25 bf 78 16 c6 be
       -0.6317352 -0.71660435 -0.6445632 -0.38689017
000010 4a 3a 33 bf 8a 12 15 bf 90 ee ea be 94 86 84 bf
       -0.7001082 -0.58231413 -0.45885134 -1.035357
000020 ee 4b 03 bf a3 a4 10 bf 82 6d 2e bf b6 fa 0f bf
       -0.51287735 -0.56501216 -0.68135846 -0.5624193
000030 f7 dd 12 bf 64 92 f5 be 09 6a 02 bf 26 1f 54 bf
       -0.5736994 -0.4796325 -0.50943047 -0.8286003
000040 74 ad 41 bf 36 ed 3b bf 9e 0b dc be ea 3f 2d bf
       -0.75655293 -0.7340883 -0.42977613 -0.6767565
000050 79 06 59 bf 50 d8 02 bf 68 c3 2e bf ce af e7 be
       -0.847755 -0.51111317 -0.68266916 -0.45251316
000060 8c c4 e0 be 33 84 07 bf 06 47 fc be 1b 85 c4 be
       -0.43899953 -0.52936095 -0.49272937 -0.383828
000070 5e e7 21 bf f8 e7 cc be db 34 cf be bf b0 cd be
       -0.63243663 -0.40020728 -0.40470013 -0.4017391
000080 03 17 15 bf 4a 15 54 bf 28 25 20 bf 6c 49 24 bf
       -0.5823824 -0.82844985 -0.62556696 -0.6417453
000090 83 98 06 bf 6f da 3e bf 1f a0 31 bf c0 43 0c bf
       -0.52576464 -0.74552053 -0.6938495 -0.5479088
0000a0 8d 4b 13 bf 7a e7 17 bf 03 df 3f bf cc 69 24 bf
       -0.57537156 -0.5933758 -0.74949664 -0.64223933
0000b0 6c 5b 0c bf e7 e1 fa be 21 2f d6 be bc a6 24 bf
       -0.54827 -0.49000475 -0.41832832 -0.64316916
0000c0 a8 ab f6 be d1 a7 07 bf ee 1f 49 bf 92 31 fd be
       -0.48177838 -0.5299044 -0.78564346 -0.49451882
0000d0 45 bf 1e bf 67 13 41 bf 5e a2 f2 be c9 74 11 bf
       -0.62010604 -0.7542023 -0.473895 -0.56818825
0000e0 15 3f ff be 06 35 d8 be d6 a2 3c bf ec 12 3d bf
       -0.49852815 -0.42227954 -0.7368597 -0.73857
0000f0 de 63 09 bf 9e 61 1c bf 47 7f 1f bf 5f c5 2e bf
       -0.5366801 -0.6108645 -0.62303585 -0.68269914

sequential/batch_normalization_2/batchnorm/mul f4 [64]
000000 d9 bb 5d 40 95 1c 11 40 59 68 84 40 71 90 e2 3f
       3.4645903 2.2673695 4.1377378 1.770033
000010 93 78 04 40 06 22 b8 3f 67 b7 91 3f 91 6f f8 3f
       2.0698593 1.4385383 1.1384095 1.9409047
000020 41 83 9b 3f 4a c8 2b 40 36 60 5b 40 c0 2e ed 3f
       1.214943 2.6840997 3.4277472 1.8529892
000030 a5 06 87 3f 6b 6b 9b 40 05 45 be 3f 54 fe 7f 40
       1.0548903 4.8568625 1.4864813 3.999898
000040 9c 19 e8 3f 95 27 7e 3f 0e 89 c8 3f 76 3e 0c 40
       1.8132815 0.9927915 1.5666826 2.1913123
000050 9f 6c 19 40 53 8d c0 3f 5f 00 48 40 3a e3 c0 3f
       2.3972547 1.5043129 3.1250226 1.5069344
000060 e2 b7 f1 3f b1 23 05 40 87 51 cb 3f b6 fa c1 3f
       1.8884242 2.0803034 1.5884255 1.5154636
000070 dd 08 9f 3f 84 db 17 40 e2 57 f8 3f b9 99 af 3f
       1.242458 2.3727732 1.940182 1.3718787
000080 33 f0 18 40 97 aa 2b 40 f6 6a be 3f 43 f1 a8 3f
       2.3896606 2.682287 1.4876392 1.3198627
000090 2b 45 34 40 ab db 15 40 35 96 07 40 0f d0 c9 3f
       2.8167217 2.3415325 2.118543 1.576662
0000a0 d5 54 db 3f 57 a3 f3 3f 5b d1 f9 3f 4d b5 89 3f
       1.7135264 1.9034222 1.9517015 1.0758454
0000b0 76 76 c4 3f ae 74 a1 3f 59 1c d7 3f a7 27 d2 3f
       1.5348651 1.2613733 1.6805526 1.6418351
0000c0 57 2e b4 3f 63 86 b7 3f e4 25 f7 3f da b5 d8 3f
       1.4076642 1.4337887 1.9308438 1.6930497
0000d0 29 84 84 3f 51 3d 15 40 05 37 d4 3f bf 20 aa 3f
       1.0352832 2.3318675 1.6579291 1.3291243
0000e0 0e 9a 41 40 a2 41 c5 3f 7a 87 37 40 0a f0 37 40
       3.0250278 1.5410655 2.8676438 2.8740258
0000f0 46 49 b6 3f 4c 94 55 40 32 97 51 40 59 e3 74 40
       1.4241111 3.3371763 3.2748532 3.8263762

sequential/batch_normalization_1/batchnorm/sub f4 [32]
000000 6d 2c ed be 03 f8 45 bf 7b 9d 16 bf e4 68 17 bf
       -0.46322957 -0.7733156 -0.58834046 -0.59144425
000010 30 32 43 bf 83 bf 3a bf 3a df ba be b4 a6 1e bf
       -0.76248455 -0.72948474 -0.36498433 -0.6197312
000020 5e 6b 0e bf 6e c7 e0 be 3d 66 01 bf 6a 5f bf be
       -0.5563258 -0.43902153 -0.5054663 -0.37377483
000030 1a 40 a4 be 10 b4 03 bf 79 e4 e7 be 16 84 94 be
       -0.32080156 -0.5144663 -0.45291498 -0.29007024
000040 76 33 03 bf a7 10 2d bf 4c 35 06 bf 20 86 cc be
       -0.512504 -0.67603534 -0.52425075 -0.3994608
000050 1c 5f 4a bf c2 d1 05 bf d1 aa 0a bf 32 38 12 bf
       -0.79051375 -0.5227319 -0.54166895 -0.57117
000060 4e 03 ad be 14 13 f9 be 70 db 13 bf a3 af f8 be
       -0.33791584 -0.48647368 -0.5775671 -0.485715
000070 67 36 97 be c7 a5 bb be a6 68 de be ba 13 72 be
       -0.29533693 -0.36649916 -0.43439215 -0.23640338

sequential/batch_normalization_1/batchnorm/mul f4 [32]
000000 5b b4 95 3f 0f a6 3c 40 d7 dd a3 3f a0 0c 0e 40
       1.1695665 2.9476354 1.2802075 2.2195206
000010 93 c0 85 3f 74 82 93 3f 09 fa 8f 3f c2 ea 80 3f
       1.0449394 1.1524186 1.124818 1.0071642
000020 d4 d0 99 40 9d a6 0d 40 b5 11 9c 3f 07 56 c1 3f
       4.8067417 2.2132943 1.2192904 1.5104378
000030 c5 f4 e3 3f bd 52 bb 3f 59 ac 9e 3f bb fb 43 41
       1.7809073 1.4634625 1.2396346 12.248958
000040 4f b1 7a 40 d6 55 b2 3f 5c 44 29 3f 56 92 a7 3f
       3.917072 1.3932445 0.66119933 1.3091533
000050 ff 9f 08 40 cc 51 f1 3f 9a e8 84 40 5a cf 6d 40
       2.1347654 1.8853087 4.1533937 3.7157807
000060 3e b7 47 40 60 77 ae 3f be cf 48 40 73 e4 40 3f
       3.1205592 1.363018 3.1376796 0.75348586
000070 47 00 62 40 11 fd a0 3f bd 82 90 3f 74 dd b7 3f
       3.531267 1.257723 1.1289898 1.4364457

sequential/dense/BiasAdd/ReadVariableOp f4 [32]
000000 8a c7 1a 3e 57 81 04 3e 38 a9 c7 3c 5d 81 2f bd
       0.1511518 0.12939964 0.024372682 -0.04284798
000010 a4 1d 68 3d 65 05 25 3e 06 2f 55 3d 0c 80 f2 3b
       0.056668893 0.16115339 0.0520468 0.0074005183
000020 b9 36 3e 3e 52 08 3a 3e 5a e9 77 3d 1f a0 87 3d
       0.18575563 0.18167236 0.060525276 0.066223375
000030 ab e4 42 3e 81 68 5c 3e a4 52 20 3d a9 b9 43 3e
       0.19032542 0.2152424 0.039141312 0.19113792
000040 d5 c2 04 3e aa 7c 09 3e 6a b7 2a 3d bc 4c c8 3d
       0.12964948 0.13426462 0.041678824 0.09780261
000050 05 8c 45 3d 85 d2 37 3e e8 66 25 3b 2b e0 f1 3d
       0.048229236 0.179514 0.002523834 0.11810335
000060 44 a1 17 3e d3 91 77 bc 30 7d 5a bc ac a0 27 3e
       0.14807612 -0.015110451 -0.013335511 0.16369885
000070 2c bf 6e 3e f3 41 fc bc 89 45 96 3d 23 88 00 3e
       0.23315114 -0.030793166 0.073374815 0.12551932

sequential/dense_1/BiasAdd/ReadVariableOp f4 [2]
000000 b0 17 c8 3d af 17 c8 bd
       0.09770143 -0.09770142

sequential/dense/MatMul f4 [32, 64]
000000 ac 44 e7 3a 02 2c f5 bb ef 77 5d 3b 04 28 d6 b8
       0.0017644367 -0.007482053 0.003379341 -0.00010211769
000010 fd f0 70 39 7e d5 ec b9 12 06 0c ba 0d 8e a4 bc
       0.00022977959 -0.00045172492 -0.0005341481 -0.020087266
000020 96 ce 1a ba 9b 7a ff bb 79 63 16 bc 0e 21 d8 b9
       -0.00059054175 -0.007796598 -0.00917899 -0.00041223358
000030 dd c6 57 b9 da 57 b3 3b ef 53 45 3b 9d 3b b8 3c
       -0.0002057808 0.005473119 0.0030109843 0.022489363
000040 8c 44 1c bc d4 0e bb ba a2 ee d3 39 2a e8 6b bc
       -0.009537827 -0.0014271387 0.0004042285 -0.014398614
000050 5f b4 df bb dc 41 9e b9 05 01 40 bb 05 da 4a 3a
       -0.006826922 -0.00030185177 -0.0029297483 0.0007738176
000060 0c 50 de b8 4b cc 13 ba dc 4a 3b ba 92 3a 98 38
       -0.00010600695 -0.0005638047 -0.0007144639 7.2588344e-05
000070 f4 1f 28 b9 6e aa 23 39 12 a9 e4 38 7a d4 5f ba
       -0.00016033632 0.00015608381 0.00010903379 -0.00085384364
000080 37 21 9a b9 a1 95 21 3c 01 c4 78 ba 61 ac 02 3c
       -0.00029397916 0.0098623345 -0.0009489656 0.007975669
000090 ed aa c3 ba 87 81 9b bc b5 75 a5 3b 79 18 0b 3b
       -0.0014928259 -0.018982662 0.005049432 0.0021224304
0000a0 04 9c 82 b9 85 38 43 b9 e6 60 fb ba 98 01 b1 b8
       -0.00024911773 -0.00018617704 -0.0019178658 -8.4403146e-05
0000b0 14 fc 89 3a 0b 8d 56 3a 75 4d 1a bb 72 b7 43 ba
       0.0010527396 0.0008184469 -0.0023544703 -0.0007465995
0000c0 48 76 27 b9 68 dc 3c 3a cf 8c 98 b8 86 43 be b9
       -0.00015970424 0.0007204474 -7.2741524e-05 -0.00036289933
0000d0 10 ee ae 37 a0 da 31 39 8d 35 18 ba 33 42 26 b9
       2.0853273e-05 0.0001696148 -0.00058063195 -0.00015855655
0000e0 ae 3b c4 b8 c4 f5 8d 3a 1c 67 e4 39 e6 fd 3c bd
       -9.3571245e-05 0.001083069 0.0004356437 -0.046140574
0000f0 be 42 19 3a 96 a8 fb bb 04 e4 14 3c 4a 92 63 3a
       0.0005846432 -0.007680009 0.009087566 0.00086811616
000100 96 4c 48 39 af a2 a3 bd 6a 6a 4f 38 b0 83 04 3d
       0.00019102017 -0.07990014 4.945175e-05 0.03235215
000110 d3 19 02 bc ea 68 36 3a 96 b7 08 3a ad 68 82 bd
       -0.007940727 0.00069583824 0.0005215345 -0.063676216
000120 1a 3f 8e bd a9 76 07 39 51 b3 56 bd c2 88 8a 3a
       -0.069456294 0.00012918808 -0.052417103 0.0010569321
000130 d1 4c 8f 3c da 05 82 ba cc a5 60 3a 75 21 b7 bd
       0.017492684 -0.0009919957 0.00085696275 -0.08941928
000140 f9 2e 1a bd db 36 08 3a 9d 34 4a 3d 32 17 5c bd
       -0.037642453 0.00051961624 0.049366582 -0.05373306
000150 f3 f2 f5 ba c5 77 89 3a 9c 3a 9d 39 4a 52 9e 3d
       -0.0018764421 0.0010487965 0.0002998904 0.07730539
000160 7c 7f ed 39 43 db 0f 3a be 5c 4f 3d 8a 71 08 3d
       0.00045299146 0.00054876896 0.050625555 0.033311404
000170 1f ac 8e 3d 93 d5 05 3a 16 6a 8e 3d 5e 78 35 3a
       0.06966423 0.00051053724 0.06953828 0.0006922538
000180 99 80 a1 b8 e6 f3 54 3b 04 22 e2 3a b0 b3 b1 3a
       -7.7010314e-05 0.0032494008 0.0017252569 0.0013557579
000190 f5 fb 53 3b 52 c4 5e ba 84 2b ae 3d 52 7a 04 3a
       0.0032346223 -0.0008497882 0.08504394 0.00050536275
0001a0 a7 3e 9c 3a 90 c1 95 b9 62 bb d8 bc 58 19 1e 3c
       0.0011920527 -0.0002856371 -0.026456539 0.009649597
0001b0 ed ae d2 b8 6d b6 6c 3d de a3 43 3d 03 e2 71 3d
       -0.00010046163 0.057791162 0.047763698 0.059053432
0001c0 e1 15 a7 3a c5 12 db 3a 75 7b c7 ba 55 24 80 38
       0.0012747609 0.0016713968 -0.0015219288 6.110283e-05
0001d0 7b 3d 60 3a 36 f6 10 38 89 ca 29 3a b0 d8 88 3a
       0.0008554083 3.4561577e-05 0.00064770185 0.0010440554
0001e0 6d 1c 92 b9 18 65 fd 3b ae 98 c7 bb 50 5c 7f ba
       -0.0002786847 0.0077329986 -0.006091199 -0.00097412337
0001f0 6e be 64 3d 11 c7 df ba b8 84 33 ba ef e0 15 ba
       0.05584567 -0.0017072876 -0.0006848085 -0.00057174166
000200 64 32 10 bb 6a 99 e7 3b 46 06 66 ba c7 6c 95 ba
       -0.0022002691 0.007067849 -0.00087747385 -0.0011400216
000210 7a 78 90 b8 0f 03 75 bb 0f 88 a3 bb df c0 65 3b
       -6.8888956e-05 -0.0037385856 -0.0049905847 0.0035057587
000220 98 21 10 39 bb 59 a0 3b e9 dc 30 3d 2f f4 2e bb
       0.00013745425 0.004893509 0.043179426 -0.0026695838
000230 1c ef d3 b8 71 0b 11 bb 16 0d 7c bb 57 17 b5 bd
       -0.000101058016 -0.0022132064 -0.0038459948 -0.08842342
000240 28 85 29 3d 30 bb 6b b7 59 32 f1 ba a3 f7 bf 3b
       0.041386753 -1.40506745e-05 -0.0018401846 0.005858378
000250 db 9d 44 3b f2 0e 1a ba 9f 49 66 3c 1a d9 cd bb
       0.0030001316 -0.0005876861 0.014055639 -0.006281984
000260 4b 08 56 ba ed a5 33 bb 1e 1b f3 39 f4 f1 97 bb
       -0.0008164688 -0.0027412132 0.00046368776 -0.0046369974
000270 f1 84 67 ba 4c 3d ef ba 69 52 20 ba 0e 52 7d bb
       -0.00088317605 -0.0018252521 -0.00061157957 -0.0038653645
000280 0c e9 9d 39 bd a2 a6 bd 82 f8 27 ba 2a aa b6 bd
       0.00030119007 -0.081365086 -0.0006407575 -0.08919175
000290 c0 d0 07 39 4e b6 d4 3d a9 d8 fa ba ec 95 53 ba
       0.00012952369 0.10386334 -0.0019138056 -0.00080713513
0002a0 8a 9c 35 b8 08 37 c8 b8 33 c0 08 3a 53 17 29 bd
       -4.329955e-05 -9.5469935e-05 0.0005216628 -0.04128201
0002b0 a4 44 39 ba e3 48 37 bb cd 19 a8 39 f8 24 19 3a
       -0.0007067418 -0.0027967028 0.0003206268 0.00058419956
0002c0 d0 d7 44 38 86 4d 1b bb a0 2d 1e 3b 4c c7 0a bb
       4.6931033e-05 -0.002369733 0.0024136081 -0.002117592
0002d0 c9 58 94 ba 3f ef 2d 3a 37 4e 22 39 9c 0b 39 39
       -0.0011317964 0.0006635077 0.00015478661 0.000176473
0002e0 15 72 90 ba e9 aa 80 bb d0 33 91 3a 89 77 6e 3d
       -0.0011020327 -0.003926624 0.0011078063 0.058219466
0002f0 ba a9 29 bc 26 93 9f 3d 28 ba cf ba b5 b0 41 ba
       -0.010355407 0.07791738 -0.0015848326 -0.0007388697
000300 3a 1e 7f bb 27 dc f9 3d 70 af 75 bd 22 ab 65 bb
       -0.0038927929 0.12200194 -0.059981763 -0.003504463
000310 21 2c 91 ba d3 30 7f bb ab df f5 bb 88 72 07 3e
       -0.0011075774 -0.0038939014 -0.00750347 0.13227284
000320 d9 fd 8f bd 20 13 30 3b 5f 8b 34 3c 9e f1 24 bb
       -0.070308395 0.0026866868 0.011019557 -0.002516843
000330 46 d0 89 3d f2 01 5d bb 74 20 87 bb df fd 97 bb
       0.06729178 -0.0033723083 -0.0041237418 -0.004638418
000340 c7 4c 15 3a 45 ff 84 ba db bf 42 bd 03 4e c5 3a
       0.00056953396 -0.0010146877 -0.04754625 0.0015053157
000350 39 58 a4 bc 68 6e 3f bb 96 86 bc 3c 83 3e f0 bd
       -0.0200616 -0.0029210094 0.023013394 -0.11730673
000360 f8 26 20 bb 70 8d 5d bb e5 a4 82 39 74 b9 e0 ba
       -0.002443729 -0.0033806227 0.00024918388 -0.0017145113
000370 8a 14 df ba 15 ce 34 bb 09 09 5d bb 2a 57 df 3b
       -0.0017019671 -0.0027588655 -0.003372731 0.0068158107
000380 24 c3 c4 ba 32 b0 99 bd db d2 16 bb 92 18 b2 bb
       -0.001501177 -0.0750431 -0.0023013863 -0.005435058
000390 03 c4 4b 3c 06 8d c0 3d 5e 82 87 bc 02 b7 86 bd
       0.01243687 0.09401898 -0.016541656 -0.06577875
0003a0 40 77 fd ba d7 bf 30 b9 4e bd 8b 3c 22 2c 76 bd
       -0.0019337907 -0.00016856134 0.017058041 -0.060100682
0003b0 fc 1b 1b bb 1d b3 5e bb cc 7c 25 3b 88 9c 9f b9
       -0.0023667803 -0.0033981272 0.0025251387 -0.00030443468
0003c0 44 7e fd b8 d4 5e d4 ba f6 ff 1d 3c 1a 6e 23 bb
       -0.00012087499 -0.0016202577 0.009643545 -0.0024937452
0003d0 b1 0a cc bc 85 a3 9e bc fd 38 6d b8 ad a6 19 39
       -0.024907442 -0.019365082 -5.6558278e-05 0.00014653309
0003e0 03 e6 e9 b8 84 fb 62 bd 40 a7 52 bc 6d 58 1d 3a
       -0.00011153149 -0.055415645 -0.012857258 0.0006002251
0003f0 32 2d 6b bb c7 c7 fd 3d 22 63 f5 bc 37 38 8f bd
       -0.0035885093 0.1239162 -0.029954497 -0.06993144

sequential/dense_1/MatMul f4 [2, 32]
000000 6b 3a 78 3e 59 d3 03 3f e0 6b e6 be 20 89 e2 be
       0.24241035 0.51494366 -0.45004177 -0.44245243
000010 e1 f8 a5 be af 54 19 3f 6d 7f 25 be 1d b8 70 3e
       -0.32416442 0.5989484 -0.1616189 0.23507734
000020 83 50 5c 3d 41 d5 96 bd fa 2a 86 bd 40 a0 87 3e
       0.05378772 -0.07364894 -0.06551166 0.2648945
000030 67 ab 91 bc c5 16 b9 3d 67 35 7c be 05 75 62 3e
       -0.017781926 0.09037546 -0.24629746 0.22114952
000040 1b 40 2a be a2 f8 f3 3e 06 95 68 3e cc 9f cd 3e
       -0.16626017 0.4765063 0.22713098 0.40160978
000050 36 7a 0a bf 02 1f c2 3e 25 53 21 3e 53 b5 1a be
       -0.5409273 0.37914282 0.15754373 -0.15108232
000060 3e d8 10 bd 1e 99 99 be e3 48 db be 4e c7 7b 3e
       -0.035362475 -0.29999632 -0.42829046 0.24587747
000070 43 3e 45 3d e7 97 fb 3d 62 f8 23 be 21 4f 89 3e
       0.04815508 0.122848324 -0.1601272 0.26818183
000080 2d 80 88 be 80 fa ff be 0e e1 4e 3e 21 f0 fa 3e
       -0.2666029 -0.49995804 0.20203039 0.4901133
000090 29 28 76 3d 61 9b 5f be 0b cf fc 3e 97 2e e1 3e
       0.060096893 -0.21836616 0.4937671 0.43980858
0000a0 bb b9 0d bf 05 4a d1 be 91 77 00 3f 42 8e 82 be
       -0.5536153 -0.40876785 0.50182444 -0.2549916
0000b0 dc 95 03 bf 08 2e c6 be b1 07 cf be d3 b3 0b bf
       -0.5140054 -0.38706994 -0.40435556 -0.54571265
0000c0 02 7c 0c bf a6 97 90 be 89 ff bd bc 1e 80 ca be
       -0.5487672 -0.282407 -0.023193138 -0.3955087
0000d0 3f 49 fa 3d 81 26 ef be d2 0f a6 3e 3c c6 8b be
       0.12221002 -0.46709064 0.32433945 -0.27299678
0000e0 09 88 91 be 56 26 d1 3e dc 90 a6 3e 91 20 e4 be
       -0.284241 0.4084956 0.32532394 -0.44556096
0000f0 b7 3c 1b bf 4e 07 06 3e d7 af 8e 3e f9 2a 50 bd
       -0.6063952 0.13088724 0.2786853 -0.050822232
